data/expert_model/metadrive/policy_network.pt (torch, 539396 bytes, 9 tensors)

action_scale f4 [2]
00000000: 0000 803f 0000 803f
1.0 1.0

action_bias f4 [2]
00000000: 0000 0000 0000 0000
0.0 0.0

weight f4 [256, 259]
00000000: 87a0 763c 6f7d eabc 97b9 693c 7236 0bbd
00000010: 890c 2c3d 9427 223d b257 273d 0ee1 86bd
00000020: 4b4e df3c b7a3 0bbd b84c f53b f098 523d
00000030: f1bb 03bc e648 373d f177 bc3c 2146 e0bc
00000040: ceb3 383a 50d0 5cbd 4b5a 89bd 3687 87bd
00000050: 279e d8bc ff4b 8dbd 80f2 ab3c 2dda afbc
00000060: 3686 27bd b5ff 153d c6fb 09bd 47a9 fc3c
00000070: bff4 61bd 6868 edbc 40c8 2f3b f0ed 083c
00000080: b1dc 0bbc 1fa0 f3bc f891 36bc 9115 313d
00000090: ccce 88bd b133 03bd e61b f8bc 0341 9fbc
000000a0: 9ab4 1bba 5fe7 48bd 4884 55bd d5e0 de39
000000b0: 4eaa d33c 87f6 003d 58a3 4b3d e5e8 fdbb
000000c0: a4ea 1b3b 9aec 423d f710 e0bc 6a9f 2bbd
000000d0: 7cef 61bc 415b 4fbd 7b15 08bd 29ca 893c
000000e0: 8431 d6b9 7b7e c33c 7a07 84bc b87f 9abc
000000f0: a519 52bc 25bb 3fbd aa9f bc3c 415f 173d
00000100: c6b8 c9bc 1d8d 7cbb 3191 c83c 1822 063b
00000110: d528 203d 7a10 1abc 234c ebbc 42e1 083d
00000120: 1763 80bd 24c6 373d 4d39 65bc 7f13 19bd
00000130: 270e 1fbd b6e6 83bd f9af 04bc 7802 1fbd
00000140: 22d6 463c 5f69 25bc c3e9 eabc b78b 003b
00000150: 8b4e 13bc 33e2 92bc ddcd 1bbc 260d 493d
00000160: d9cc 223d 3867 fabb a7cb 78bd 45e9 d6bc
00000170: baf4 1f3d 2119 8f3b 72ef 203d 833c d1bc
00000180: 62ca 72bd e2f9 19bc f53d 40bd 7958 09bc
00000190: 176b 62bd c364 a6bb ac4e 3c3d c650 48bd
000001a0: d76e 83bd 8f8d 4bbd a4cf 593c 95ca 513c
000001b0: 073c 5fbc e883 73bd 0e78 49bd 7867 4abd
000001c0: 855c 263d bfb9 643d 6c6b adbb eddb cabc
000001d0: f89d d9bb ca39 843b c0ad e33c c156 c1bc
000001e0: d196 00bd f153 b2b8 5512 ffbc d6b5 0abd
000001f0: adbb 553d 59ca e63c 411f 3dbd 3bd1 3f3c
00000200: 3e1d 5d3c 53fc 5b3d 00b2 cabb eb94 01bb
00000210: a5c3 03bd 320e ee3b 6201 393c 8add 13bd
00000220: 55b7 4fbd 7ca4 b93c 7ecf 62bd b5cd 02bd
00000230: 3002 0b3b 4b26 073d e628 5c3c fc69 dbbc
00000240: 0eec 3bbd 741e a4bc 55e8 37bd 8a6e 67bc
00000250: eeb3 ea3c 046a c3bb cc26 89bc 6fad 2bbd
00000260: f8a7 dbbc fdd8 b53c 4ba1 20bd 5586 0c3d
00000270: c05b 13bd 40fa 3d3d 6c52 453d e0f2 4a3d
00000280: ff5d 70bd d14d 36bd 4f57 31bd ed00 c5bc
00000290: f377 1bbd 7b6a 70bd 6db5 463d 51f5 473d
000002a0: 02a9 1f3d 8c5a cdbc 2293 143d 73c7 aab9
000002b0: aaa2 6abd 74c1 01bd 109e ebbc b82c c9bc
000002c0: efb9 64bd 40f8 593d 1ba0 11bd e60b 973c
000002d0: 509f 32ba 704b 5a3c 732f 9fbb 535d 353b
000002e0: b577 1b3d e195 b93c 415a bfbc 3a45 7139
000002f0: 87ca 0b3d a421 f0bc 639d c5bc e97c ca3c
00000300: 3829 303d edea 7d3b 0259 ee3b 9692 603b
00000310: d02e 423d 33b4 323d 6c53 81bd 4c20 52bd
00000320: e73e 5dbd 1df7 843c d19f 35bd 8f72 933a
00000330: e04e 0e3b 8eac 223d 7b4f 2ebd f820 283d
00000340: a036 3e3d 7455 37bc 44fd 113c 7a9f 29bd
00000350: 122c 073d aad5 71bd b0d1 9dbc 22ec 6cbd
00000360: 7e31 07bd bf9f 60bd e5a1 67bb 333b 523d
00000370: 9f36 0d3d 9e8d 5e3d b598 5e3d b6c7 3bbd
00000380: c681 34bc 7b63 ad3c 4294 33bd c0f3 1cbc
00000390: ed34 963a 764d 4b3d f431 5cbc f4fe a0bc
000003a0: 36fb 493d bdd0 2c3d db00 c33c 4e74 f5bc
000003b0: 1e14 40bd 7be9 0bbd 0a8a 84bc 6162 3f3d
000003c0: 6f67 57bd 6833 ce3c 2ed5 4fbd 9dcd 08bd
000003d0: 75a5 393d 04c7 583d 292f 75bd 27f0 b13c
000003e0: 5953 563d 1a4f 3fbd c24f 9eb9 e711 87bd
000003f0: 9718 793c 95a2 373d 206a fd3c 6286 553d
0.015052921 -0.028624265 0.0142654395 -0.03398747 0.042004142 0.039588526 0.040855117 -0.065858945
0.027259013 -0.034091678 0.007485952 0.051415384 -0.008040414 0.044747256 0.023006411 -0.02737719
0.0007045836 -0.0539096 -0.06706675 -0.06617586 -0.0264426 -0.06899261 0.020989656 -0.021466339
-0.040899478 0.036620814 -0.033687375 0.030842436 -0.05516505 -0.028980449 0.002682224 0.00835751
-0.008536504 -0.029739438 -0.0111432 0.043233458 -0.066800684 -0.03203172 -0.03028674 -0.01944018
-0.00059396925 -0.049048778 -0.052128106 0.00042510653 0.025838044 0.031485107 0.049716324 -0.0077487105
0.002379098 0.047588922 -0.02735184 -0.041900076 -0.013790008 -0.050624136 -0.03322361 0.01682003
-0.00040854153 0.023864022 -0.016116846 -0.01885973 -0.012823497 -0.046809334 0.023025353 0.036956076
-0.02462424 -0.0038536259 0.024483295 0.0020467099 0.03910144 -0.009403342 -0.028722828 0.033417948
-0.062689 0.044866696 -0.013990712 -0.03737211 -0.038831856 -0.06440489 -0.008098596 -0.038820714
0.012136014 -0.010095923 -0.02867592 0.0019614527 -0.008990894 -0.017930126 -0.009509531 0.049084805
0.03974614 -0.007641699 -0.060741093 -0.026234278 0.03905175 0.0043670093 0.039290853 -0.02554155
-0.05927504 -0.009397956 -0.046934087 -0.00838291 -0.05527791 -0.0050779297 0.045973465 -0.048905157
-0.064176254 -0.049695548 0.013294134 0.012804647 -0.0136251515 -0.059451967 -0.04918676 -0.04941508
0.040615577 0.055841204 -0.0052923467 -0.024763072 -0.006641146 0.0040352093 0.027792811 -0.023600938
-0.03139383 -8.503337e-05 -0.031136671 -0.03386482 0.052180935 0.028172659 -0.046172384 0.011707599
0.013495741 0.053707432 -0.00618577 -0.00197726 -0.032169003 0.007264876 0.011291834 -0.036099948
-0.05071195 0.02266144 -0.05537366 -0.03193446 0.002121102 0.032995503 0.013437485 -0.026783936
-0.045879416 -0.020034052 -0.044899303 -0.014125476 0.02865025 -0.005963566 -0.016742133 -0.041913446
-0.026813492 0.022198195 -0.03921632 0.034307797 -0.03597617 0.046381235 0.048174307 0.04954803
-0.05868339 -0.044507805 -0.043296155 -0.024048293 -0.03795619 -0.058695298 0.048512865 0.048817936
0.038979538 -0.02506759 0.03627313 -0.00032573528 -0.057284035 -0.031678632 -0.028761894 -0.024557456
-0.055841383 0.053215265 -0.03555308 0.01843829 -0.00068139005 0.01332365 -0.0048579513 0.0027674034
0.03795596 0.022654476 -0.023358466 0.0002300934 0.034128692 -0.029312916 -0.0241229 0.024717765
0.04300806 0.0038744763 0.007273794 0.003426706 0.047407925 0.043628883 -0.063147396 -0.051300332
-0.054015066 0.016231114 -0.044341866 0.0011249351 0.0021714494 0.039715342 -0.042556267 0.041047066
0.046438813 -0.011189807 0.008910481 -0.041411854 0.033001013 -0.059041657 -0.019265026 -0.05784238
-0.033006184 -0.054839846 -0.00353443 0.051325988 0.03447592 0.054334275 0.05434485 -0.045844756
-0.0110172685 0.0211656 -0.04384256 -0.009579599 0.0011459865 0.04963442 -0.013439644 -0.019652821
0.04931184 0.042191256 0.023804119 -0.029962685 -0.046894185 -0.03415821 -0.016179103 0.04672468
-0.052588876 0.025170997 -0.050740413 -0.033399213 0.045323808 0.05292417 -0.05985943 0.021720959
0.05232558 -0.046706297 -0.00030195533 -0.065952115 0.015203617 0.044832785 0.030934393 0.05213011

bias f4 [256]
00000000: 1381 533d e581 1dbc c593 39ba 46d9 78bd
00000010: 106c 013d aece 17bd 7d59 4f3c cb08 413d
00000020: 32f1 6dbc f8a3 81bd f35d b23c a60f 1bbc
00000030: 4601 c93c e48f 2c3e 7c27 c2bc 8e21 fb3c
00000040: 7e67 b03c 724a 22bd 1199 c03c af93 8bbd
00000050: 0b39 3a3d 50be 1d3d cc22 e9bc 4604 233d
00000060: f3cf 27bd 22ee 20bd cabb aa3c f440 613c
00000070: c291 a73b 3fa9 d83c c09d 8dbd cfc0 8fbb
00000080: 4b9f 2dbd 2d28 1dbd de54 43bd 18cc 3b3d
00000090: fee7 e63c 8257 55bd 8441 49bd d5b8 49bc
000000a0: fb82 24bd 689e c43c a396 ba3c 98d7 1dbd
000000b0: 751a 143d 184c 1bbc 407a 223d 8108 3dbc
000000c0: 2942 0abd 9940 f7bc 922b 4dbd bfd8 e33c
000000d0: 2006 84bd 03c2 dd3c c70d 80bc a9b3 1b3d
000000e0: 6ee4 60bd 7e99 ebbc 1c87 9a3c c845 08bd
000000f0: 8fdc cf3c 8390 fc3b 50c8 a3bc 6991 463d
00000100: d315 50bd 2bd3 a63c 1e60 84bb 47d3 093c
00000110: 15dc 0f3d b715 86bd be95 28bd 4617 0fbc
00000120: e9f1 51ba ef16 2abc 7653 c8bc f5e4 063d
00000130: 479f a8bb cf66 073d 5fd4 22bd e279 60bd
00000140: 57d0 673c 61fd 013d 1258 283d 4fef 373d
00000150: 94eb 4f3c 5cdd b63c 0050 0fbd 2a53 8aba
00000160: 35a5 ffbc e302 dbbb 4a5c 4ebd 3644 4a3d
00000170: 0937 a8bb 57b9 58bd 1bf8 c23c 996c 37bd
00000180: f9de 2a3d 1d21 25bd a637 07bc 57e9 213d
00000190: 3535 033d 8e8c b7bc 6903 75bc a28d 8bbb
000001a0: be43 05bc f4f0 0fbd 12bc 6abd 877a 92bc
000001b0: 3b0d 043d a2d7 a63b fb32 06bc 4138 28bd
000001c0: abab d93c cf85 503d 3f4f 57bd a835 673c
000001d0: 6e89 3d3e 0e48 abbb a58d 9a3e dd19 0d3d
000001e0: 536d 243d 54e9 893c 61cb 13bd 6d2a c23b
000001f0: a665 223c ea8b 523d 8d81 1bbc 776b 5d3c
00000200: 67db 383c 4682 483d eedd c03b 64da 4d3c
00000210: ba43 503d e6a5 23bb 08fe 18bb 2420 0dbd
00000220: 003e 80bd b92a 923b 56b3 03bd 0089 64bd
00000230: 0a5c 2fbc b83a 363d 30c6 1abd fee7 fabb
00000240: 3667 f33c 25ff aa3c b90a 56bd d140 8ebd
00000250: 4d8e 56bd 6e75 b03b 3910 923c b34b adbc
00000260: 1111 a7bb 58e1 05bd c065 073c d424 87bc
00000270: 4337 1fbd e22e dd3c 0b25 dcbc e5a9 1bbd
00000280: e8c5 e3bc 964b b83c 9ea1 53bc 2236 13bd
00000290: 016e 833c 7e9a 08bd a089 7dbd 3511 24bd
000002a0: 2db6 383d a856 e5ba 37e6 33bd 1db9 c53c
000002b0: 932b 64bd 7be1 49bd 33a4 80bd 29e6 89bd
000002c0: af7c cdbc a269 37bd 6b3e 6fbd abaf 35bb
000002d0: 6cd4 03bd 2b28 503c e49c 1cbd e625 86bd
000002e0: c8a0 283d e38b 803b cbe5 1c3d 26c0 403d
000002f0: ed89 033c 193c 15bc 6056 1fbd df07 523d
00000300: 5c4e 893c 6864 473d 5304 3abc c6c3 b83c
00000310: 504b 8c3b 6c8f 70bd 5732 03bc c581 803c
00000320: 01b8 643e 4f1c f03c 0dd8 113c 307c 15bd
00000330: d983 de3c 0b92 933c 1f25 f93a 12ef 59bd
00000340: 9dc0 5bbd f7da cd3c e829 953a 4af1 073d
00000350: 8aa6 35bd eabd 523d bbbe 43ba 3edc 073d
00000360: ca72 8bbc 7d93 3ebc 8eb2 60bd 29eb 6cbd
00000370: 00e4 7dbd c6c7 74bd ef40 d4bc 8dfd 9b3c
00000380: ab34 a7bc c506 bdbb b8bd 6ebc 96e6 68bc
00000390: c98d 73bd 5bf9 0ebd 8bd7 843c db3d b13d
000003a0: 845c 023d 1d10 253c c58b 9aba 41c6 7fbd
000003b0: 7d7d f0ba c480 1c3c 1b6d 0a3d d7f6 6e3b
000003c0: 6c4e 6dbd e7a2 08bd 2e6d e43c e694 253b
000003d0: 2180 1b3d 7d1c 78bd e815 59bd bd40 923c
000003e0: cb29 e0bb b16c 993e 79ef 3dbd a7d8 80bd
000003f0: 5736 973c ceb5 c9bc 2389 e5bc 93b5 4c3d
0.051636767 -0.009613489 -0.00070792093 -0.060754083 0.031597197 -0.03706234 0.012655613 0.047127526
-0.0145228375 -0.06330103 0.021773314 -0.00946418 0.02453674 0.16851765 -0.023700468 0.030655649
0.021533724 -0.039621778 0.023510488 -0.06815278 0.045464557 0.038511574 -0.028458975 0.039798997
-0.0409698 -0.0392896 0.020841498 0.013748396 0.005113811 0.02644789 -0.06914854 -0.0043869982
-0.04238824 -0.038368393 -0.047688358 0.045848936 0.028186794 -0.052085407 -0.049134746 -0.012312134
-0.040163975 0.024001315 0.022776907 -0.038535684 0.036158044 -0.009478591 0.039667368 -0.011537672
-0.0337545 -0.03018217 -0.05009038 0.027813314 -0.06446481 0.027070051 -0.01563157 0.038013134
-0.054905348 -0.028759714 0.018863253 -0.033269674 0.025373725 0.007707657 -0.019992977 0.048478518
-0.050802063 0.020364365 -0.0040397784 0.008412189 0.035121996 -0.065471105 -0.04115843 -0.008733576
-0.00080087647 -0.010381444 -0.02445386 0.032933194 -0.0051459405 0.03305703 -0.039753314 -0.054803737
0.014148793 0.03173578 0.041099615 0.044905957 0.012690444 0.02232235 -0.034988403 -0.0010553349
-0.031206707 -0.0066836937 -0.050380982 0.049381457 -0.005133514 -0.05291113 0.023799947 -0.0447813
0.04171655 -0.040314782 -0.008253014 0.03952917 0.032033164 -0.022405889 -0.014954426 -0.0042588273
-0.008133827 -0.0351419 -0.057308264 -0.017880691 0.03223918 0.0050916234 -0.008190866 -0.041069273
0.026571115 0.05090886 -0.05256581 0.014111914 0.18509457 -0.0052270954 0.3018619 0.034448493
0.040143322 0.016834892 -0.03608263 0.0059254677 0.00991193 0.051402964 -0.0094913365 0.013514391
0.011282778 0.048952363 0.005885831 0.012564275 0.05084584 -0.002497071 -0.0023344774 -0.03445448
-0.062618256 0.0044606593 -0.03215345 -0.055794716 -0.010703096 0.044489592 -0.037786663 -0.00765705
0.0297123 0.020873616 -0.05225632 -0.069459565 -0.052381802 0.0053850925 0.017830001 -0.02115426
-0.00509847 -0.032685608 0.008264005 -0.016497053 -0.03887106 0.026999895 -0.026873132 -0.03800382
-0.02780433 0.02249698 -0.0129169505 -0.035940297 0.016043665 -0.03335046 -0.061898828 -0.040055472
0.04509561 -0.0017497139 -0.04392072 0.02413612 -0.055705618 -0.0492873 -0.062813185 -0.06733353
-0.025083868 -0.044778474 -0.058409136 -0.0027723114 -0.032185003 0.012704889 -0.03823556 -0.06550197
0.041168958 0.003922926 0.038305085 0.047058247 0.00802849 -0.009108567 -0.038900733 0.051277038
0.016760997 0.04867974 -0.01135357 0.02255429 0.004281439 -0.058730528 -0.008007607 0.015686879
0.22335817 0.029310374 0.008901608 -0.036495388 0.02716248 0.018013975 0.0019008255 -0.05320651
-0.053650487 0.025128825 0.0011380287 0.033189096 -0.044348277 0.051450647 -0.0007467081 0.033169024
-0.01702251 -0.011631844 -0.054857783 -0.057841454 -0.061985016 -0.05976083 -0.025909869 0.0190418
-0.020410856 -0.0057686293 -0.0145716 -0.014215132 -0.05946139 -0.034905773 0.01621606 0.08654376
0.03182651 0.0100746425 -0.0011790922 -0.06244493 -0.0018347945 0.0095521845 0.033795457 0.0036463046
-0.057936117 -0.03335848 0.027884092 0.0025265752 0.03796399 -0.060574044 -0.052999407 0.017853135
-0.0068409196 0.29965737 -0.046370957 -0.06291323 0.018458528 -0.024622824 -0.028019493 0.04997785

weight f4 [256, 256]
00000000: 9584 9abc 6229 713d 7816 3dbd aa29 79bd
00000010: 79f3 bcba 266f 273d 748b 9fbc 5404 37bc
00000020: 3124 783d 38da 553d 08c5 2fbc b830 c93c
00000030: 4478 053d dc15 e73c 913f ce3c ce7c d63c
00000040: bba1 6dbd 420d dabc 1442 313c dcd5 52bd
00000050: d88d 1bbd 6ba2 68bc 5c69 ec3c 2a35 213c
00000060: 804f 4f3c 320a 0ebd dd41 123d 598f bfbc
00000070: 6ae9 6b3d 314f 393b fa46 493d fca4 893c
00000080: 9b5a 8a3c 69f7 01bd 4381 49bd a456 1abd
00000090: 57bb 803b 6ca3 63bd f163 f33c ee83 09bd
000000a0: fd94 67bd 5fec a03c e0e8 d03c 0a4e 723d
000000b0: 52ce 553d 5042 bf3c 6063 1abd ee0f 77bc
000000c0: 6d88 e6bb 5075 d03c 40fe 7d3d f92c 0f3c
000000d0: ee0d efbc 0f7e 423c 40ed 8aba a44e d9bc
000000e0: 1e72 48bd 8449 41bb d9fa 223b 7d9e 153d
000000f0: 9196 333c 8cb5 0f3d 1196 0f3c 0a5f 453d
00000100: c311 9dbc 2dee 3ebd aa3d 333d 9068 1cbc
00000110: 1ab1 ed3c b4d1 59bd a42b 6e3d 0f70 1a3d
00000120: 4dd1 353d 7400 63bc e775 1bbd 0270 843c
00000130: 0b3b babb e431 1fbd 201d 6b3d f6de 15bc
00000140: c621 903a fd93 85bc f18e d0bc 22c9 2ebd
00000150: 75d3 5cbd 9324 d2bb 9fa1 e23c 4982 b53b
00000160: 434c 47bd df6a 94bc 5b61 30bd c35b 30bd
00000170: b78f 08bd 5494 5fbd 4796 68bd 8ba2 693d
00000180: a49c f6bc 79bb 0c3b f678 e73c a922 a3bc
00000190: fcf1 b1bb 71d6 79bd 6c6a 3b3d 42f0 2d3d
000001a0: 4bc0 493d 7212 2f3d 52b4 2cbd 80c6 843c
000001b0: c476 b6bb 8f03 8c3b 079f 09bd dc24 443c
000001c0: 93e2 d9bc 065c 903c 2b79 5abd b497 56bd
000001d0: 97af 6ebd e4ad fdbc ff87 163d 46b4 1a3d
000001e0: 22f9 5a3d a7cd 863d 4802 883c ccae 913c
000001f0: 267a 06bd 8216 69bb b01a 58bc fb09 d13c
00000200: 83bd 703c 55e5 263d 060a 2abd ccee a03c
00000210: 2e02 433d 2347 3c3d 4284 b33b b44e bc3c
00000220: 65d7 0abd c4e6 29bd aa31 40bd 5492 773c
00000230: 525c 6e3d 6c57 113d 4074 fb3b 9a0c 82bd
00000240: 0aa6 03bc 57d3 fdbe b764 c1bc a473 86bc
00000250: a3e4 a73c b892 31bd 1f0d 8a3c 7edd e7bc
00000260: aee3 10bd 7c6c 2e3c 1bcf 75bc 4b3b f0bc
00000270: 6cd8 483d 0777 503d 23c3 243d aaf7 263d
00000280: 0024 023d a8a0 693d 2c25 92bd d93a 0e3d
00000290: 4534 cc3c f529 023c 712f b63c 6aad bcbc
000002a0: bb06 763d 128c 18bd 9151 28bd cb9b 2b3c
000002b0: bb65 e8bc 0975 fdb9 b559 4dbd 7089 4fbd
000002c0: 6dfd 67bd 0cec f6bc 8d99 17bd fc9d 8cbc
000002d0: fa8b 40bd 34c8 853c edd5 d43c 6e8c f13c
000002e0: a4e0 64bd 45ab 333c 4d17 eebc 4d87 783b
000002f0: 2fa8 debc 2214 cabc b42a b6bc bad7 5abc
00000300: 1237 10bd 0b06 08bc edd9 31bc 647b 58bd
00000310: 7834 a2bd bcee 653c dc63 f83c 1b94 babc
00000320: fed2 2f3e 4df4 0abc f5c1 82b9 0027 1b3d
00000330: 5192 67bd 8940 bfbc 2eb7 28bd 4519 803b
00000340: c83e 143a f679 393d 4d87 23bd 6cef 6bbd
00000350: 48b2 93bc 1031 8fbc ce38 a6bc 9b87 01bd
00000360: d374 6c3d b97a 1ebd 61f6 d13c 4a97 373d
00000370: d50d 723c 7e86 613d e8da 5fbd 15b3 ca3c
00000380: 4db6 dfbc 5da2 d3bc 046b f1bc 2b9e 6bbd
00000390: 0cae ffbb 409c a2bc f4a9 6d3d a3e2 24bb
000003a0: 00cd 053d 0935 4f3d 0aae dfb8 54de 2f3c
000003b0: 9454 653d ff4f 13bc 61ba 1dbd f720 9dbc
000003c0: f4f6 9b3c 10ed 96bc 533d 8b3c 13f6 043d
000003d0: 01c4 9e38 aa75 10bb 10ba 09bd 8357 aa3b
000003e0: 657b 54bd a7f9 413f 64e4 dd3c a16f 903a
000003f0: aba0 5e3c c519 fb3c baae 853c 2751 c2bc
-0.018862048 0.058877356 -0.046164006 -0.06083075 -0.0014415822 0.040877484 -0.019475676 -0.0111704655
0.06058139 0.052210063 -0.010728128 0.024559364 0.032585397 0.028208666 0.025176795 0.026182558
-0.058015566 -0.02661765 0.010818977 -0.051473483 -0.03797707 -0.01419888 0.028858833 0.009839335
0.012653232 -0.03467769 0.035707343 -0.023383783 0.057595648 0.0028275962 0.049139954 0.016802303
0.016888907 -0.03173009 -0.04919554 -0.037680283 0.0039285826 -0.055575773 0.029710742 -0.033573084
-0.05653857 0.01964396 0.025501668 0.059156455 0.052198716 0.02334705 -0.037692428 -0.0150794815
-0.007035306 0.025446564 0.06201005 0.00873875 -0.029181447 0.011870875 -0.001059927 -0.026526757
-0.048936956 -0.0029493282 0.0024868755 0.0365281 0.010961191 0.035085246 0.008763806 0.04818634
-0.019173509 -0.04661386 0.04375998 -0.009546414 0.029015113 -0.053178504 0.058147088 0.037704524
0.044389058 -0.0138550885 -0.037954237 0.01616669 -0.005683308 -0.03886594 0.057400823 -0.009147396
0.0010996393 -0.016305918 -0.025458785 -0.042672284 -0.0539126 -0.0064130514 0.027664958 0.005539213
-0.048656713 -0.018117366 -0.043061595 -0.04305626 -0.033340182 -0.054584816 -0.05678394 0.05703978
-0.030103989 0.0021474047 0.02825592 -0.019913988 -0.005430458 -0.060995523 0.04575579 0.042465456
0.04925565 0.0427422 -0.042164154 0.016207933 -0.005568357 0.004272885 -0.033598926 0.011971679
-0.026597297 0.017622005 -0.05333821 -0.05239077 -0.058272924 -0.030966707 0.03675079 0.03776958
0.053460248 0.06582194 0.01660265 0.017783545 -0.032831334 -0.0035566394 -0.013189957 0.025517454
0.014693621 0.04074605 -0.041513465 0.019645117 0.0476095 0.04596628 0.005478413 0.022986747
-0.033896822 -0.04147984 -0.046922363 0.015110571 0.058193512 0.035483763 0.00767377 -0.0635006
-0.008035192 -0.49575302 -0.023607595 -0.016412564 0.020494765 -0.043352813 0.01685196 -0.028303858
-0.035373382 0.010645982 -0.015002991 -0.029325148 0.04903452 0.050894763 0.04022516 0.040763535
0.031772614 0.05703798 -0.07135996 0.03472409 0.024927268 0.007944574 0.022239419 -0.023031909
0.060065012 -0.037242956 -0.041093413 0.010474156 -0.028368821 -0.00048343118 -0.05013438 -0.05066818
-0.05663817 -0.030141853 -0.03701167 -0.017165177 -0.047008492 0.016330816 0.025980914 0.029485907
-0.055878296 0.010966127 -0.029063845 0.0037922442 -0.027179806 -0.024667803 -0.02223716 -0.013357097
-0.03520877 -0.008302222 -0.01085518 -0.05285205 -0.07920164 0.0140339695 0.030321054 -0.0227757
0.17170331 -0.008481097 -0.00024940041 0.03787899 -0.056536023 -0.023346202 -0.04119032 0.0039092624
0.0005655107 0.045282327 -0.039923955 -0.057601377 -0.018029347 -0.01747945 -0.020290758 -0.031623464
0.0577286 -0.038691256 0.025630178 0.044822015 0.014773806 0.055059902 -0.054652125 0.024743596
-0.027308607 -0.025834257 -0.029469974 -0.057523888 -0.0078027304 -0.019849896 0.058023408 -0.00251595
0.032666206 0.050587688 -0.00010665886 0.0107341595 0.055988863 -0.0089912405 -0.038507823 -0.019180758
0.019038655 -0.018423587 0.016997015 0.032461237 7.570536e-05 -0.002204279 -0.03362471 0.0051984205
-0.05187549 0.75771564 0.027086444 0.0011019596 0.013588111 0.030651936 0.016318668 -0.023720337

bias f4 [256]
00000000: dec8 31bf 7087 eb3c fe1c 2c3e 2f90 dabe
00000010: dd22 283d 3879 20be 39f4 bebd e0d8 423e
00000020: a551 e5bc e682 6f3e 46e8 2a3e cb67 123d
00000030: 2b1a 80bd 07d6 77bd 622a 003f 6596 c5bd
00000040: 623f f0be c788 38be 7ee7 0f3e 2747 edbd
00000050: d4ed 893e b7f7 003e ac19 15bf f3a2 323e
00000060: cd26 11bf ef6e 0e3e 6688 85bd 5559 80bd
00000070: 0ed0 2f3e 20e1 213c df6a cabe 2311 38be
00000080: 4158 a6be 6188 873e 46de c03c 8d3e 9cbd
00000090: a937 94be 4fa9 483e 23cd b13e c140 8bbd
000000a0: c650 993e 91ae 4cbe e720 b4be b477 2cbf
000000b0: afb4 31bf f550 c1ba 5ac8 6fbd b3a9 6fbe
000000c0: 0b01 433e b3cf 64be 4945 8b3d e25c c33c
000000d0: 3993 f6bd 9e3a afbb 8b4c ed3d 09db 13bd
000000e0: bf23 173c 260a 673e b4be 9f3e beca 0fbf
000000f0: e83e edbd 014e 093d 7719 60bf 3f01 4c3e
00000100: 6b64 d0bd dae9 5c3e 876d f3bd 8c28 ddbd
00000110: eeb7 f9bd ec9d b73d c666 863c 44b6 b6bd
00000120: 7b1f 15bf c1f8 813e 6f57 e13d 29ec 393e
00000130: b2d0 edbd 41b7 c3bd 9939 843e 9252 d0be
00000140: f4cc 26bd 29d8 07be 0479 493e 6016 1f3e
00000150: 71c6 00bf 7e3d 8dbd 3906 003e f0e2 9cbd
00000160: 0f33 ddbd 3820 323e a5a8 fe3d 1af9 723e
00000170: b9c5 13be 6122 2d3e b4d9 123e 2043 673e
00000180: 8ff3 003e 12ae 643e 63d8 9cbd e5f9 dfbe
00000190: 9ebd 97be 6b64 6c3e ffc4 4dbe 0b44 3f3d
000001a0: 0cd8 8f3e 7ca2 a9be a709 773e 8c20 17be
000001b0: 0eed 48be 14ab ae3e 14ad c9bc 86be 213e
000001c0: e783 03bc 1a28 793e 56ef 9d3e 8325 c4be
000001d0: 5bb6 5bbc a6bf 8dbd 0d20 4dbd 7a23 cabe
000001e0: dad3 23bd d917 cc3d 78b9 093e 3528 503e
000001f0: 8ad0 683e aad2 dfbd a5cb 57be 05ae 30be
00000200: 6de0 53bd a4f1 1d3e 6825 32bd 57b0 b3bd
00000210: 0f88 b13e f676 063e 0a53 b13e 616f 33bd
00000220: 964c 7f3e 1d68 333e ee0a 3ebf 720d b53d
00000230: b464 aabd 93f9 773d 0617 793e a906 e43d
00000240: 444b e8be 609f 80bd 5023 633e 920d fc3d
00000250: 30ba bebd 843b 70be e037 15bf ea7d c3bc
00000260: f7a8 d2be 8377 713c d8f9 88bd 7953 563e
00000270: bbb6 a03e b6cb 953e f9a2 bbbe 37ca 873e
00000280: 502e 18bf 0a98 083e 0ddd 49bd 320a 193d
00000290: c738 b33d 8d12 b73e 58f6 153d 4eb8 8e3e
000002a0: 0c08 473e 3d2d 9cbe da25 403e fc76 c8bd
000002b0: 8c47 abbb 9b33 04bf 49e9 25bf 7a7d afbd
000002c0: 3fbf a4be d229 273e 3a6b dfbe e6cb a93e
000002d0: 2e18 693c d6b0 3f3e c147 21bd fffd 633e
000002e0: f782 c1be 1306 b03d 01be b53e c5ec 653e
000002f0: bde7 203e 971e 8b3e d633 c7be ddb6 40be
00000300: bba6 713e e070 a33d 0ae1 dbbd b471 c23e
00000310: eb43 8e3b 55f0 a63e 1323 fb3d f222 383e
00000320: 0f68 98bd 0b52 bc3e 43e0 f2be 00f9 4a3e
00000330: 6f4d bfbe 5bf7 233e 8976 153e 4583 35bd
00000340: 886e 31be 74cd 583e aa51 96bd d9b7 243e
00000350: 00b1 46bd b329 12bd 7bc2 1a3e 5c2b a03e
00000360: c6e2 1a3e 9e51 1ebe 468b e53d cf5e d3be
00000370: fb98 cc3e 146c 2dbd c8ff cfbe 3df3 11bd
00000380: 930a a5bd f11f 473e fcef 373d dd91 433e
00000390: bd33 dfba 2e91 7e3d bc63 06bf cec4 0dbf
000003a0: 5cf0 583e 2cfd 92be 9fe6 7d3e b45e a23d
000003b0: 84ce 673e 3c13 ffbe 08d1 953e f809 03bf
000003c0: 5b50 dfbe 4309 913c 339a 0bbf 89a1 0fbe
000003d0: 5cae fd3d 5784 b7be 5032 a1bd a1aa 9a3e
000003e0: c697 69be ba77 05be 576d 04bf f5f1 b53e
000003f0: 2b6f e4be 323d 96bd 4dbe a8bd d0f6 81be
-0.69447124 0.028751105 0.16807935 -0.42688128 0.041048873 -0.15671241 -0.093239255 0.19028044
-0.027993033 0.23389778 0.16690168 0.035743516 -0.06254991 -0.060506847 0.5006467 -0.09647826
-0.46923357 -0.18020926 0.14053151 -0.11585837 0.2693926 0.12594496 -0.582423 0.17444973
-0.5669983 0.13909505 -0.065201566 -0.06267039 0.1716921 0.009880334 -0.3953466 -0.17975287
-0.32489207 0.26471236 0.023543488 -0.07629118 -0.28948715 0.19595836 0.3472682 -0.0679946
0.29944438 -0.19988467 -0.35181352 -0.6737015 -0.69416326 -0.0014748859 -0.05854068 -0.23404579
0.19043367 -0.22344856 0.068003245 0.023848 -0.12039799 -0.005347564 0.11586865 -0.03609756
0.009224831 0.22562465 0.31200182 -0.56168735 -0.11584264 0.033521656 -0.87538856 0.1992235
-0.10175403 0.21573582 -0.11886125 -0.10798749 -0.12193285 0.08965668 0.016406428 -0.08921483
-0.5825116 0.25385097 0.11003005 0.18156494 -0.11612071 -0.09556437 0.25825194 -0.40687996
-0.040722802 -0.13266052 0.1967507 0.15535879 -0.503028 -0.06896494 0.12502374 -0.076604724
-0.10800754 0.17395103 0.1243451 0.23727837 -0.14430894 0.16907646 0.1434086 0.225842
0.1259291 0.22332028 -0.0765846 -0.43745342 -0.29636854 0.23085181 -0.2009468 0.04669575
0.28094518 -0.33131778 0.24124776 -0.1475851 -0.19621679 0.34114897 -0.024618663 0.15795335
-0.008027053 0.24331704 0.3084666 -0.3830987 -0.013410176 -0.0692132 -0.050079394 -0.3948019
-0.03999696 0.09965486 0.13449657 0.20327838 0.22735801 -0.10928853 -0.21073778 -0.17253883
-0.0517277 0.1542421 -0.043492705 -0.087738685 0.34674117 0.13131317 0.34633666 -0.04380739
0.24931559 0.17520185 -0.7423543 0.08840455 -0.08319989 0.060540747 0.24325189 0.11134083
-0.45369923 -0.06280398 0.2218144 0.12307276 -0.09312856 -0.23460203 -0.58288383 -0.023863751
-0.41144535 0.0147379665 -0.06688279 0.2093028 0.31389412 0.29256982 -0.36647776 0.26521465
-0.5944567 0.13339248 -0.049283076 0.03736324 0.08751064 0.3575634 0.036611885 0.27874988
0.19436663 -0.30503264 0.18764439 -0.097883195 -0.005227035 -0.51641244 -0.6480909 -0.08568855
-0.3217716 0.16324547 -0.43636495 0.33163375 0.014226956 0.18719801 -0.03937507 0.2226486
-0.3779523 0.085949086 0.35496524 0.22453602 0.15713401 0.27171776 -0.38906735 -0.18819757
0.23598759 0.079805136 -0.10736282 0.37977374 0.0043415925 0.32605234 0.12262549 0.1798208
-0.074417226 0.36781344 -0.47436723 0.19821548 -0.37363765 0.16012327 0.14595999 -0.04431464
-0.1732732 0.21172124 -0.07339795 0.16085757 -0.048508644 -0.0356843 0.15113251 0.3128308
0.1512557 -0.15460822 0.11208205 -0.4128327 0.39960465 -0.0423394 -0.40624833 -0.03563236
-0.080586575 0.19445778 0.0449066 0.19098611 -0.0017028969 0.062150173 -0.5249593 -0.55378425
0.2118544 -0.2870878 0.24795006 0.079282194 0.22637373 -0.49819362 0.2926104 -0.51187086
-0.43615994 0.017704612 -0.54532164 -0.14026465 0.12386772 -0.35843155 -0.078709245 0.30208305
-0.22811803 -0.13033953 -0.5172934 0.3553616 -0.44616064 -0.07335891 -0.08239422 -0.25383615

weight f4 [4, 256]
00000000: 6659 4e40 1864 96bf e014 013e cc01 07c0
00000010: 4e5a 25be 421c be3f 9c89 0fbf 290c e63e
00000020: 7aad 07bd b791 0c3e ead4 e23c 3ec4 a43d
00000030: 2360 1dbb 68b8 8d3d 4e35 9d3f adfb 5ebe
00000040: 54cf a7bf 72f4 d6bf 8a8d 173c 4ae7 29bf
00000050: 07f2 e63c fc7f 943f 10f9 b7bf df87 223c
00000060: f651 a2bf 619c 00be bd30 e23f ad4d 2e3f
00000070: 79f9 563d 8a53 18bd d04a 3b40 e5a1 21bf
00000080: 006b 10c0 9011 ddbe 409a b5bd 8894 1bbf
00000090: fdf3 05c0 50a1 8a3d 0705 233d 1103 16bf
000000a0: d237 95bf 40e3 a63f bcd4 883f 4d72 cd3f
000000b0: 74fa f93f e047 eabb 93e9 59bc ea6f 09bf
000000c0: d9ea 823e ea61 55bf 1e0c 52bc 9272 683c
000000d0: 2179 983f 80a3 14be 2332 8fbd eb88 073d
000000e0: 410c 1cbd e091 a63e 5ddd 113d 22a7 c1bf
000000f0: 6413 0b3f 8ccb 70bd 7de5 02c0 f84f 773e
00000100: a77b acbc 6e4c debe 29ab 67bf 523c 0d3b
00000110: 208f 213c 7bd2 6abb fe35 65be 782e 04bd
00000120: 490e e4bf 8236 433d 6d7c 3a3d 4482 c33c
00000130: f698 cbbe 436e 043d 9da7 223d bf8e 48bf
00000140: fc7a 34bd be69 28be a817 cc3e e736 bc3e
00000150: d566 5a3f 7f4a 95ba 0adb 85bd 2c40 c13a
00000160: be7f 593b 23ab 133d b12a 13bd c5bc b03e
00000170: 1acf 1540 3dd0 2c3e 7fa9 10be 5035 0d3d
00000180: be62 a63c 5347 1bbf f070 7b3f 18cf a9bf
00000190: 9f1d 313f 078d 203d 1f62 513e 0fa3 93bd
000001a0: 91e9 b33d 0667 fb3f c445 823e 5ff2 7fbf
000001b0: 3758 d53f dcbd ed3c d4a3 47be b831 0f3f
000001c0: 92cd dcbf 000f 6c3d 64d1 ec3c 13b1 4b3f
000001d0: de45 42bd 3981 99bb 7b1e 7e3c 824e 993f
000001e0: a7fc 72be 608a 77bf 83c4 003e cc7b 1ec0
000001f0: a366 693f 1223 f5be 0a58 16bd cd3b cf3e
00000200: 1c6e 3bbe 9d54 7c3f 5000 a9bc 249b dc39
00000210: d9b4 013d a179 a43f a2b9 e23f 7a7a 50bf
00000220: b08a 713e 0f3e dbbf f183 ee3f 8eb9 71bd
00000230: 27a9 0b3e 2956 31bd efb7 493d b0f7 8abd
00000240: 0818 1b40 b7bd 523c 0797 6a3d 3751 903b
00000250: 0ecd 7c3e 4bc5 c73f 9959 af3f 909a 8fbc
00000260: 9c1f 16bf 67e8 63bd b299 aebb 9e43 b13d
00000270: e102 abbf 270b 223c bd77 23bf 74c5 93bf
00000280: 08c9 f33f 6563 5abe af7b cfbe e381 40bd
00000290: d887 b5bd b02b 5b3e 76d4 80bd a9a9 4b3d
000002a0: 1d3d 103e 0eb2 0e40 bd1d 5e3e 79fb 00bc
000002b0: 0404 cabc f2fb 1840 940c c93f 706e 6fbe
000002c0: 314f 51be baa3 15be 94d2 0f40 bb4e 183d
000002d0: 96fb 0fbe 0954 953e 5eb9 a6be 2207 a93c
000002e0: d0a3 65bf 7df6 803c 4df2 ab3c e280 c33d
000002f0: 0b5c 893c d7f7 0b3d d439 263f 78f0 1640
00000300: bffb 8d3e 9c6c fe3e caf7 4f3b 313a 0e3d
00000310: 66f4 2ebe d2ac 4abe 3a26 aabe 1ee0 0c40
00000320: 4ae9 103c 4244 6ebb cc73 87bf e785 d1be
00000330: 848b ff3f 4223 473c 2afe a13c 4c73 9e3c
00000340: 7b68 bf3f 6250 6cbe ae5a 42bc daa5 523d
00000350: f08c 96bf d101 a5bb d3ac 79be f33e d6be
00000360: e707 15be dfaa 08bc 189f 11bf 47b8 06c0
00000370: 2402 7c3e e83c 30bc bd25 d23e ff27 cf3b
00000380: d244 25bc 2475 ed3c b9ab fdbe 0b3b 843d
00000390: b118 48bd efc8 553c 2cda f43f 7eb9 9f3f
000003a0: 204e 193f dace 8a3f 2d46 fa3e 3d82 7bbe
000003b0: 7fd2 913d 8f88 bd3f 2c67 33bd 5641 0540
000003c0: 7854 1fc0 9f12 a13f dd12 0b40 827d ee3e
000003d0: 7c0e 103d c31e 9fbf cfd0 123c d2b6 1c3e
000003e0: ee0d e03e 06bc febf 1c01 31c0 1cb5 d83c
000003f0: ff38 df3e 35d8 0e3f bed7 253b 6f1e da3f
3.2242064 -1.1749296 0.1260562 -2.1094847 -0.1614773 1.4852374 -0.5606935 0.44931152
-0.033124425 0.13727461 0.027689416 0.08045243 -0.00240136 0.06919938 1.2281892 -0.21775694
-1.3110147 -1.6793349 0.009250054 -0.66368544 0.02819158 1.1601558 -1.4372883 0.0099200895
-1.2681262 -0.12559654 1.7671124 0.68087274 0.05248401 -0.037189044 2.9264412 -0.63137656
-2.2565308 -0.43177462 -0.088673115 -0.60773516 -2.0930169 0.06769049 0.039799716 -0.5859843
-1.165766 1.3038101 1.0689921 1.6050507 1.9529557 -0.0071496814 -0.013300317 -0.5368639
0.255698 -0.8335253 -0.012820272 0.014187472 1.1911966 -0.14515495 -0.06991985 0.03308956
-0.038097624 0.3253317 0.0356115 -1.512913 0.5432646 -0.058787867 -2.0452569 0.241516
-0.021055056 -0.43417686 -0.90495545 0.0021550846 0.009860784 -0.0035831023 -0.22383878 -0.03227088
-1.781686 0.047659405 0.045528818 0.023865826 -0.39765137 0.032331716 0.03971063 -0.78342813
-0.0440626 -0.16446587 0.39861798 0.36760637 0.8531316 -0.0011389999 -0.06535919 0.0014743856
0.0033187713 0.03605188 -0.035929386 0.3451902 2.3407655 0.16876312 -0.14127158 0.03447467
0.020310756 -0.6065571 0.98219204 -1.3266325 0.69185823 0.039196994 0.20447586 -0.07208835
0.08784784 1.9640815 0.25443852 -0.99979204 1.6667546 0.029021196 -0.19496089 0.5593524
-1.7250235 0.057631493 0.028908439 0.7956707 -0.04742991 -0.004684594 0.015510197 1.1977084
-0.23729192 -0.9669552 0.12574963 -2.476306 0.91172236 -0.4787832 -0.036705054 0.40475312
-0.18303722 0.9856661 -0.020630032 0.0004207726 0.03166661 1.2849618 1.7712901 -0.81436884
0.23588061 -1.7128314 1.8634015 -0.05901485 0.13638745 -0.04329506 0.04924768 -0.06785524
2.4233418 0.012862614 0.057272937 0.004404213 0.24687597 1.5607084 1.3699218 -0.017529756
-0.5864198 -0.055641558 -0.0053283805 0.08655475 -1.3360254 0.009890354 -0.6385458 -1.1544633
1.9045725 -0.21326979 -0.4052405 -0.04699887 -0.08863801 0.21403384 -0.06290524 0.049722347
0.14085813 2.2296176 0.21691032 -0.007872456 -0.024660118 2.3903775 1.5706964 -0.23381972
-0.20440365 -0.14613238 2.2472277 0.03718446 -0.14060816 0.29165676 -0.325633 0.020633284
-0.89703083 0.015742535 0.020989561 0.09546067 0.016767522 0.034171905 0.6493199 2.358427
0.2773113 0.49692237 0.0031733387 0.034723464 -0.17085418 -0.19792488 -0.3323229 2.201179
0.008844683 -0.0036356603 -1.0582213 -0.40922472 1.9964452 0.012154402 0.019774515 0.019342087
1.495376 -0.23077539 -0.01186244 0.0514277 -1.1761761 -0.005035617 -0.24382333 -0.418449
-0.14553796 -0.00834152 -0.5688338 -2.1049974 0.24610192 -0.010756709 0.41044417 0.0063219066
-0.010087209 0.028986521 -0.49545076 0.06456574 -0.048851673 0.013048395 1.9129081 1.2478483
0.59884834 1.0844376 0.48881665 -0.245614 0.07120227 1.4807299 -0.043799564 2.0821128
-2.4895306 1.2583808 2.1730263 0.4658013 0.035170063 -1.2431263 0.008960917 0.15304115
0.43760628 -1.990113 -2.7656927 0.026453547 0.43598172 0.55798656 0.0025305594 1.7040538

bias f4 [4]
00000000: cf57 b93d f666 c23e 38da c5be 67b6 81be
0.09049951 0.37969178 -0.3864305 -0.25334474

log_std f4 [2]
00000000: 0000 00bf 0000 00bf
-0.5 -0.5
