data/expert_model/metadrive/q_network.pt (torch, 535639 bytes, 5 tensors)

weight f4 [256, 261]
00000000: a45a c6ba 05c5 48bd e08f f43c dfb1 f7bc
00000010: 7643 2dbd c0a9 d43c 5f52 0e3d 07e2 6fbd
00000020: 0698 43bd a13c 353d 4438 75bd 44fc babc
00000030: 71fc 3a3d 8c3d 22bd 608f a73c a7a4 86bb
00000040: e349 30bc 2f78 84bc 890b d33b fdcf 87bd
00000050: f863 8d3c 1831 febc 5588 453d b001 2fbd
00000060: 08d6 7cbc 5aba 37bd 43ba 5f3c e4ae b03c
00000070: c3e6 60bc d574 cb3c b92b bebc 42fc 7dbd
00000080: c221 183d 9ac1 e1bc aa31 f9bc 95a6 fbbc
00000090: 7c37 29bd d55d 41bc e50b 2ebd 9b1d 113c
000000a0: bef4 2dbb ba6c 8a3c ad1d 5abd 3e83 813c
000000b0: 5758 dd3c e88e 8fbd cefb c43c 93a6 ecbc
000000c0: 024b 45bd 866f 79bd 60dc 84bd a94b dabb
000000d0: 3fbe 5c3b 6772 be3c c855 2b3d 43ea df3c
000000e0: 0acf 8abd e828 3e3d 18b1 4cbc 271d d33c
000000f0: 8459 343d 1046 87bc ff0e 603b 8ce3 0f3d
00000100: bd5e f13c 4d03 fa3c 06a0 2bbd 4d21 a63c
00000110: 4f9c 29bc 9313 1cbd 4af1 5fbd d9b7 4b3d
00000120: b91a 16bd fc8b e33c 2764 993c 00ce 5cbd
00000130: 2d20 2abc 00b3 8bbd a61d 26bc 7bde 033d
00000140: 7e89 47bc db64 8dbd aa30 883c dea2 12bb
00000150: 6fdc 05bb 2cb2 13bb bbfd 79bd b9f6 7cbd
00000160: ffb9 86bd 5679 303d 9da0 83bd cb12 4cbd
00000170: a1ba c6bc 0e41 853b f784 64bd bdfa 47bd
00000180: 6c65 a4bc 34c3 0c3c 3211 88bd da43 433d
00000190: dbdc 4e3d e3bf 32bd 9f20 a13b fcb1 89bd
000001a0: 7228 e8bc 40af 23bd fddc f63c 9787 663c
000001b0: bfc9 2bbd ad46 5cbd 4673 d43b aa39 ce3c
000001c0: 853a 6bbd b894 7cbc f0af d2bb b09f 2e3d
000001d0: e1a0 453d c251 79bd 334a 4abc 88e0 8fbd
000001e0: 21cf febc eccb 543d e7f1 21bc 5585 103d
000001f0: 8be5 15bd 27e7 863b 993f 023d c6d9 423d
00000200: c56c 66bd 161b 0a3d d3fa 8e3b 9c97 83bc
00000210: 241b 2ebd 35bf 0ebd 08f6 983c 22fd c13c
00000220: 0e33 1c3c e81f 56bd c1b2 60bb deb8 8bbc
00000230: 7d13 8c3b 74d1 08bd b9cf ef3c 6f51 7bbd
00000240: b954 53bd 5c97 19bd 1a36 2e3d 1c15 e0bc
00000250: 9cd2 20bd 45e2 263d ff0c 553d 4bdc d4bc
00000260: f26d 573d 3f83 0bbd 1f8e d63c 3b4f f2bc
00000270: 91ba 5c3c f846 323c 9f0d f03a 8bb5 1dbc
00000280: 96c2 f8bc 77d2 40bd 2136 85bd 777d b3bc
00000290: 6a5c a23b 1634 91bd df4a adbc 3284 8cbd
000002a0: 4119 83bd 87c6 233d e7a5 e0bc d8e8 b73c
000002b0: 3f24 58bd 089a 4e3c f6c1 8a3c 302f bcbc
000002c0: bde4 53bb 72cc 99bc fa1d 403d 95ec d93c
000002d0: 26cb a1bc 49b3 4ebc 6aff b93c 487b 4b3d
000002e0: a36a 71bd 0b6d ef3c d868 75bd d695 ce3c
000002f0: e81e 71bd a0d2 c43c 9f11 133d 2e2b 483d
00000300: f093 1d3c ddf5 463d 29b6 e33c 8ce1 46bd
00000310: 6eb7 403d ffbc 2cbd 16c0 3abd 8430 213d
00000320: f819 01bd b3e4 85bc 7b87 363c 5fa7 db3c
00000330: 85f4 8c3c fe1c a13c 4eb2 eb3a 759d 943b
00000340: b588 5dbd bc4f 19bc eaa5 30bd 4ff7 3c3d
00000350: fa2e 7e3c b246 20ba 0099 63bd 14e0 17bd
00000360: 50f7 3abc b816 56bd 03ba 5e3c f6d9 9bbc
00000370: 3be2 533c 4218 f33c f003 933a 7467 963c
00000380: 672c 413d 16e2 693c 6063 383d 8dff 72bd
00000390: 73d2 82bc be96 ecbc d597 443d 1663 323d
000003a0: d865 88bb 4be4 953c 91c9 1a3d 2c66 02bd
000003b0: f14e 3e3c 7c75 113d a9f9 47bd 4b6c 3abd
000003c0: 4e04 61bd 33aa d13c a6fc 6ebc e510 ebbc
000003d0: abad f83c 572b 74bd 66af 22bd f273 d2bc
000003e0: f6b1 283d 5482 8dbd a960 443d 6e33 7bbd
000003f0: 6cd0 38bc 5cca 3bbc e1d5 bdbc 61b8 533d
-0.0015133214 -0.049016017 0.029853761 -0.030236183 -0.042300664 0.02595985 0.034746524 -0.058565166
-0.047752403 0.044247273 -0.059868112 -0.022825368 0.045650903 -0.039609477 0.020454109 -0.0041089836
-0.0107598035 -0.01617059 0.006440584 -0.066314675 0.017259583 -0.03102927 0.04822572 -0.04272622
-0.015431888 -0.044855453 0.013655248 0.02156777 -0.013726893 0.024835983 -0.023214208 -0.06200815
0.03714157 -0.027558137 -0.03041919 -0.030719081 -0.04131268 -0.011802156 -0.042491812 0.008857156
-0.0026543583 0.016897548 -0.053250957 0.015809651 0.027019663 -0.07009679 0.024045851 -0.028888023
-0.048167236 -0.060897373 -0.06487346 -0.0066618514 0.0033682731 0.02324791 0.041829854 0.027333384
-0.06777771 0.04642573 -0.012493394 0.025770737 0.04403068 -0.0165129 0.0034188626 0.035129115
0.02946412 0.030519152 -0.041900657 0.02027955 -0.010352208 -0.038104605 -0.05467347 0.049735878
-0.03664658 0.02777671 0.018724514 -0.053907394 -0.010383648 -0.06821251 -0.010138905 0.032194596
-0.012178777 -0.06904002 0.016624767 -0.0022374908 -0.0020425578 -0.0022536619 -0.06103299 -0.06175873
-0.06578445 0.043084465 -0.06427119 -0.04982261 -0.024258913 0.004066593 -0.055790868 -0.048823107
-0.020067893 0.008591462 -0.06643905 0.04767213 0.050503593 -0.04364003 0.004917219 -0.06723401
-0.028339598 -0.039962053 0.030134672 0.014070413 -0.041940447 -0.05377834 0.006483468 0.02517398
-0.057428855 -0.015416317 -0.006429665 0.04263276 0.04824913 -0.060868986 -0.012346792 -0.07025248
-0.031104626 0.051952288 -0.009884334 0.035283405 -0.036595862 0.004116911 0.031798933 0.047570966
-0.056256074 0.033717237 0.0043633967 -0.016063504 -0.042506352 -0.034850318 0.018672004 0.023680273
0.009533657 -0.052276522 -0.0034286233 -0.017055925 0.004274784 -0.033402875 0.029273855 -0.061356958
-0.05159447 -0.037497863 0.042532064 -0.027353816 -0.039263353 0.04074313 0.052014347 -0.02598395
0.052595086 -0.034060713 0.026190815 -0.029578796 0.013472215 0.010881178 0.0018314606 -0.009625803
-0.030366223 -0.047075715 -0.06504465 -0.021910412 0.0049548643 -0.07090013 -0.021153865 -0.06861152
-0.06401301 0.039984252 -0.027422858 0.022449896 -0.052768942 0.012609966 0.01693819 -0.02297172
-0.0032332384 -0.018774245 0.046903588 0.026602069 -0.019750189 -0.012615987 0.022704799 0.049678117
-0.058939587 0.0292268 -0.05991444 0.025217932 -0.058867365 0.024026215 0.035905477 0.048869304
0.009617791 0.048574317 0.027796822 -0.048554942 0.047049932 -0.04217243 -0.045593344 0.03935291
-0.031518906 -0.016344404 0.0111406995 0.026813207 0.01720644 0.019667145 0.0017982216 0.004535372
-0.054085452 -0.009357389 -0.043126978 0.04613429 0.01551413 -0.000611405 -0.055565834 -0.037078932
-0.011411503 -0.05226776 0.013594153 -0.01902483 0.0129323555 0.029674653 0.0011216383 0.018359877
0.047161486 0.0142750945 0.045016646 -0.059325743 -0.01596949 -0.028880473 0.04799636 0.043551527
-0.0041625313 0.018297335 0.037789885 -0.03183572 0.011615501 0.035512432 -0.04882208 -0.045513432
-0.054935746 0.025593853 -0.014586603 -0.02869458 0.030356249 -0.059611645 -0.039718054 -0.025690053
0.04118534 -0.06909624 0.047943745 -0.061328344 -0.01128016 -0.01146182 -0.023173274 0.05168951

bias f4 [256]
00000000: 8c50 c8bc 6def 8e3c ba39 46bd dea6 853c
00000010: fa54 2ebd a8c6 82bc 6df0 c5bc e5ee 42bc
00000020: eedf b4bc 2092 563b c092 523d 9828 0dbd
00000030: 2554 11be 3f3a 93bd c32c 5f3d 5ac0 d7bd
00000040: 696d 5bbd 4670 833c 35ca 38ba 3a21 9fbc
00000050: ab7c 57bd 39ca 253d 1486 d4bc 50d0 f3bd
00000060: 3818 8dbb 5962 72bd 5edd 87bd 594e cdbc
00000070: 141e dcbd a615 fcbc f41e babd c186 673c
00000080: 0e56 a5bd ecda c2bd f641 0abc 2a4e 88bd
00000090: eeb3 30bd f961 bbbc 95cf 5cbd 4039 6dbe
000000a0: 7557 1c3d 0147 61bd 69f2 ec3c e2f2 7cbd
000000b0: da21 5a3e 32a7 a2bc f64a 05bd 44d8 b23c
000000c0: ff74 46bd f4b1 71bc c94b 90bc 2f23 d1bb
000000d0: 3465 193c 2e4d 1ebc 7691 85bd 1f3e 08be
000000e0: 0aa7 1abe e9a5 87bd 3275 7dbc 4487 d6bd
000000f0: 6dca 82bd 5c0c 083d 8b8a 06bd 1e90 a23c
00000100: b5b3 0ebd 9d1e ffbd b8a8 63bd 8e83 443d
00000110: ceb3 153e ad71 2dbe 7d1d ea3c 191b e2bd
00000120: 3686 003e 27a9 24bd 8c74 893d c017 cb3c
00000130: 26f4 85bd f9e4 5a3d 9892 9a3c cd4f 4cbd
00000140: 2bb5 65bd 1c04 e73d 177f 243c b068 92bd
00000150: 79f5 553d 97f7 18be 956b 4f3e 025b acbc
00000160: a4c5 76bd 0dd1 79bd 6673 ba3c 8da7 4dbc
00000170: 018d 02bd a421 32bc 11e3 88bd ed59 88bc
00000180: 96d0 093d 3dda 58be 24d8 0f3d b1c7 9dbc
00000190: 7e3f 80bd 192e 4e3c 065a 16bd d06d b73c
000001a0: e121 123e 35f6 5abd ed3c 143d de5f 363d
000001b0: 9503 d43b 62b7 6ebd e9e6 1fbd 927b d2bb
000001c0: 1ee2 6fbb 4f3e b8bc 7251 443d d7fb 133c
000001d0: 8926 8b3d 4292 a4ba c111 0f3d 25c5 433d
000001e0: 1d3a cb3c 01de 9a3a 8319 d13d 058a 6dbd
000001f0: 0e10 f53c edec 75bb 6ba2 0c3e c1ce f9bd
00000200: c83b b23c 0c06 b8bc d04a cc3c 75db f73d
00000210: e359 69bd 4ca6 92bc 42ad 3abd 83b1 bcbd
00000220: 5b70 8ebc 2ae0 613c 103a 673c b97c 0fbb
00000230: 96c1 7fbd fcc5 b7bc 3620 0dbc 4d29 fbbc
00000240: 1b53 5dbc e090 aa3d 5eb0 053d 2d92 3c3c
00000250: c17c f73d f849 1cbe b3e0 8f3c eee9 0a3d
00000260: c34e 893c 2450 823c 9de8 e1bc 0a99 e6bb
00000270: f562 d7bd 202d 0dbd 758f 503b 7a46 5ebd
00000280: 13ce 23bd ceb0 f7bc 6547 ef3c ddc1 23bd
00000290: b917 19be 5012 debd fb62 07bd 45e6 a5bd
000002a0: 6ae4 7ebb 9fa0 2abe 884c 9c3c d07a b7ba
000002b0: 86bc 10bd 9351 d6bd 3158 3b3c 6d7b b43c
000002c0: 6aa8 cabc 5d19 39bd 0653 e1bb 6e18 5c3d
000002d0: 8e0a bfbd 2013 543d 8f1a 70bc 9276 7a39
000002e0: 87eb 52bd 30bb c6bc b9c7 0abd 48f4 3a3d
000002f0: ed2c fbbc c2da 87ba aeec 10be 6209 283d
00000300: 9623 04be ef23 87bd a679 3c3d 3b77 28be
00000310: 167e b33a 1289 c13d 7c26 a7bc af9f 94bd
00000320: e470 96bd bc33 23bc 0117 7cbd 4233 71bd
00000330: 8818 ed3c 09e9 093c 1a78 69bd 8535 91bd
00000340: 1c3b 41bd 80ed b73c e8ca 1dbd 0fab 6dba
00000350: 56ef 03be 2765 1dbd 2b56 ef3c 3fcd 03bd
00000360: 7858 dabc c650 663d 68d9 cfbc be48 28bd
00000370: 8769 773d e983 373c bbe7 4fbd 5c60 43bb
00000380: 3d0f 13bd 195f d23c ab59 a4bc 9edc 533d
00000390: c385 123c 5732 b33c dc84 8ebd 2929 f13c
000003a0: 45e4 603e 35fc 60bd 4541 27bd c667 853c
000003b0: 5469 2e3d f305 df3c eaa4 33bd 16f7 f93c
000003c0: c7fb 32bb eab4 87bc 9cc9 5abd 5954 c93c
000003d0: 4ad1 b7bc dc1a 1abd 9b7f 06be 5102 2ebe
000003e0: 1fe5 52bd 3686 3abd e3d8 69bd f60d be3c
000003f0: 4c33 0dbe e642 cebd 1c84 a83c 0371 52bd
-0.02445247 0.017448151 -0.048394896 0.01631492 -0.04256151 -0.015963867 -0.024162496 -0.011897777
-0.022079434 0.0032740906 0.051409483 -0.03446254 -0.14192255 -0.07188844 0.054486047 -0.10534735
-0.05357114 0.016044747 -0.0007049174 -0.019425023 -0.052609127 0.040476058 -0.02594284 -0.11904967
-0.0043058656 -0.059175823 -0.06634019 -0.025061773 -0.107479244 -0.030772042 -0.09087935 0.014131249
-0.08073054 -0.09514412 -0.008438578 -0.066555336 -0.043140344 -0.022873865 -0.053908903 -0.2316637
0.038169343 -0.054999355 0.028924184 -0.06175507 0.21301976 -0.019855116 -0.03254219 0.02183164
-0.04845142 -0.0147519 -0.017614262 -0.006382368 0.009362508 -0.009661956 -0.06521885 -0.13304947
-0.15102783 -0.06623442 -0.015469836 -0.104750186 -0.06386266 0.03321491 -0.03284697 0.019844111
-0.03483935 -0.12457011 -0.055580825 0.047977023 0.14619371 -0.16937895 0.028578514 -0.11040325
0.12551197 -0.04020038 0.06711683 0.024791598 -0.06540708 0.05344102 0.01886873 -0.04988079
-0.05608098 0.11280081 0.010040066 -0.07148874 0.052236054 -0.14938198 0.20255883 -0.02103949
-0.06024708 -0.060990382 0.022760104 -0.012552154 -0.031872753 -0.010872278 -0.066839345 -0.016644442
0.03364619 -0.21177001 0.035118237 -0.01926026 -0.0626211 0.012584233 -0.036706947 0.02239123
0.14270736 -0.053457458 0.036190916 0.04452502 0.0064701536 -0.058280356 -0.039038572 -0.006423422
-0.0036603282 -0.022490649 0.047929235 0.009032211 0.067944594 -0.0012555795 0.03492904 0.047795434
0.024807984 0.001181543 0.10209944 -0.057992954 0.029914882 -0.0037525252 0.13733833 -0.12197638
0.021757022 -0.02246382 0.024938017 0.12102405 -0.05697049 -0.017901562 -0.045575388 -0.09213545
-0.01738756 0.013786355 0.014112964 -0.002189441 -0.062440477 -0.022433273 -0.008613637 -0.030659342
-0.013508583 0.08328414 0.0326389 0.01150946 0.12084342 -0.15262592 0.0175632 0.0339145
0.01676119 0.015907355 -0.027576739 -0.0070372866 -0.105169214 -0.034466863 0.0031823788 -0.05426643
-0.03999145 -0.030235674 0.029208848 -0.039979804 -0.14950456 -0.108433366 -0.03305338 -0.08100561
-0.003889347 -0.16662835 0.019079462 -0.0013998393 -0.03533604 -0.10464778 0.011434601 0.02203151
-0.02473851 -0.045190204 -0.0068763522 0.053734235 -0.09328185 0.05177605 -0.01465477 0.00023886029
-0.051494148 -0.02425918 -0.033881877 0.04564312 -0.03066107 -0.0010364878 -0.14152786 0.041024573
-0.129042 -0.06598651 0.04601445 -0.16451733 0.0013694193 0.09449972 -0.020404093 -0.0725702
-0.07345751 -0.009961065 -0.061545376 -0.058886774 0.028942361 0.008417376 -0.056999303 -0.07090286
-0.04717551 0.022452116 -0.038523585 -0.0009066322 -0.12884268 -0.038426545 0.029215893 -0.03217816
-0.026653513 0.056229375 -0.025372222 -0.041084997 0.060403373 0.011200883 -0.050758105 -0.0029812073
-0.035903204 0.025680112 -0.020062288 0.05172407 0.008943024 0.02187459 -0.06958935 0.029438572
0.21962078 -0.054928023 -0.04083373 0.016284835 0.042580917 0.027224516 -0.043858446 0.030513328
-0.0027310716 -0.016565759 -0.053414926 0.024576353 -0.022438664 -0.03762327 -0.13134615 -0.16993071
-0.05148804 -0.04553815 -0.057091605 0.023200016 -0.137891 -0.100713536 0.020570807 -0.051377308

weight f4 [256, 256]
00000000: 61a6 ccbc f684 6abd 0bec 6a3d 172f 11bd
00000010: 0afe a83c a75a 47be a669 70bd 528b 153d
00000020: 4f09 e1bc 669c b6b9 d91c 283d 7f0b 033d
00000030: c94a 0ebe e112 78be 843f 89bd e428 cbbd
00000040: f03b dbbc 75c1 8bbb 062d 1abd e820 4e3d
00000050: 1ea7 daba 0bd6 13bf e91c 8dc0 392d c2be
00000060: 7481 8dbc ee0d 823d b605 d73d 913c 7a38
00000070: cdbb 1bbe a272 063d 4b30 20be 5c4e 253c
00000080: f361 49be 31df d73c 035f 10bd 8ee0 11be
00000090: 2b8b 29bd cfef 38bd 606e 74bd ec6a 47bd
000000a0: 180f 14bd 6e45 0d3b 1abc e43b c191 093d
000000b0: 564b d9be a28b 1fbd fef3 eebb 6fe0 f03d
000000c0: b8e4 5b3d 391b 093d 4e6e 373d 2da5 633d
000000d0: 09de 7abd d5f2 c63c 5d0a 65be 77f4 0bbd
000000e0: 8246 c3be 6547 85be b997 973c 9ac7 4fbe
000000f0: 658f 81be 14c1 ea3c 5912 5dbd ddae 5dbd
00000100: c19b 71bd 46be 9b3d 7fd9 9c3b a39a 823d
00000110: 9344 16be cc25 57be 6841 01bd dd1f 5fbe
00000120: 8bbb cb3c 2954 a33d de6e 9d3d 6436 03bd
00000130: 59ff b03d d3ee 003c e62c 05be e5d4 29bd
00000140: b718 2ebe 7eaf 923d 1643 a0bc dbcc 42bd
00000150: 3ce9 c3bc fb4e 363e 9fd3 3ebd 5d9b a1bd
00000160: 55e5 a93c 6fd7 9a3c fd37 053d 1f7f 0fbb
00000170: 039e 2e3d aad2 bdbc b3e0 5cbd 3da4 f23c
00000180: 075f a2be 9562 4d3d b53d 2d3d 53cd eb3b
00000190: db0b cd3d 4ac8 56bc b171 0ebd c315 873c
000001a0: 43f0 40be 73cd ea3c 3609 853c beaf e93c
000001b0: eea7 a33c 2be5 053d 6afe aa3c a5b0 09be
000001c0: 6eeb 1f3c efa6 fc3c 2bec 673b 5ad8 47bb
000001d0: 1d43 f4bf 272b 323d 4b44 84bd 9d6c 6c3d
000001e0: 5655 04bd 2f4d 443d f691 00bf 922a 52bd
000001f0: 168b 603d 0e96 ac3d 1c1b 35be 9e87 6abe
00000200: 4eae 1ebd dfe9 febc eeb3 c73c 3e5d f33d
00000210: 8bc1 013d 503f 1bbd 2d04 233d b160 f6be
00000220: 8c57 423d a55e 743c 538c d83c 6376 843c
00000230: 6366 323b 1603 103e 208c 56bc 790f 813d
00000240: c19e c9bc 284b 15bd 8da9 edbc 999f 283c
00000250: 7e41 18bf 1326 613e a04d 9b3e da49 143d
00000260: f044 57bd 3594 2e3d f5bc 3dbd bb0e aeba
00000270: 1abd 98bc 3d91 1f3d be26 43bd 4366 613d
00000280: 6dde 8a3c 0c38 22bd 93ec 0abd ac89 d7bd
00000290: b2e1 f4be 7f66 e7bc 38e0 2bbd cdc8 c83d
000002a0: 4016 8c3d 990c 9b3e 3a9b 813c 9777 4cbd
000002b0: 763d 7fbb a2d7 3abe ce2d fc3c 64e8 e23c
000002c0: 0007 5e3b 2782 dabc 36da 83bc a8a9 43bb
000002d0: 50b7 3f3d 06db 853d ec73 0fbd e4f1 2abd
000002e0: 3d6a f1bc 9239 97be 4138 433e f034 2fbc
000002f0: 1b6d 333b 2e99 51bd 1716 883c f21c 1fbd
00000300: e82b a33d a80f 193e 5907 653d 8555 d6bd
00000310: 02a3 83bc 22c0 2e3e a526 093e f22d 623b
00000320: a1e1 7dbd e65c 80bb 7f65 153d 0a97 16bc
00000330: 1bad 31bd 7210 4e3d 1fa4 31bd 0c3f d73b
00000340: a007 13be c546 723d 64cd a03c 5c13 923c
00000350: 9863 85be e99b 02bd 42cf 7cbd 3037 23bc
00000360: cfdc c4bc c17f 123d 0226 35bd 6075 21be
00000370: 224a dfbd a68e 1fbd ce6e 273d 9819 de3d
00000380: 0e91 9abc be07 fcbc 599c 6c3d 2106 8cbc
00000390: 1f29 963c 0330 63bd 7bb1 1ebe c487 8a3c
000003a0: 240d 8d3d 1c64 223d 4683 8c3c 7a2f 3f3d
000003b0: 65b2 3fbd 77d7 843c fdd4 23bd 76d5 5ebb
000003c0: 54be 16bd 689f 553c e793 0a38 70d3 6cbf
000003d0: 6cdb 163d 2dc9 58be df49 353d 9dd6 933e
000003e0: 252d aabd 5c85 3cbe d9be ccbd 75b4 0d3e
000003f0: 6781 683d 3303 983d 8422 1cbd 1b5e 28bb
-0.02498168 -0.057255708 0.057354014 -0.0354453 0.020628948 -0.19468175 -0.058694504 0.03650982
-0.027470259 -0.0003483027 0.041043136 0.031993385 -0.13895716 -0.24225952 -0.06701568 -0.09919909
-0.026761979 -0.0042650052 -0.037640594 0.05032435 -0.0016681885 -0.5774848 -4.409779 -0.37925127
-0.017273642 0.06350313 0.10499136 5.966105e-05 -0.15208359 0.032824166 -0.15643422 0.010089483
-0.19666271 0.026351543 -0.03524686 -0.14245817 -0.041392487 -0.045150574 -0.059675574 -0.048685953
-0.036147207 0.0021556276 0.0069804313 0.033586267 -0.4244029 -0.038951524 -0.0072922697 0.11761557
0.05368492 0.033473227 0.04478293 0.055577446 -0.061246905 0.024285713 -0.22367235 -0.034168687
-0.3813973 -0.26031032 0.018504964 -0.20290986 -0.25304714 0.02865652 -0.053972576 -0.05412184
-0.05898643 0.07604651 0.0047866697 0.06377151 -0.14674596 -0.21010512 -0.031556517 -0.21789499
0.0248697 0.07975037 0.07687162 -0.032034293 0.08642454 0.00786944 -0.13005409 -0.041462798
-0.17001615 0.07162379 -0.019563239 -0.047558647 -0.023914926 0.17803566 -0.046588536 -0.07890961
0.020739237 0.018901555 0.032524098 -0.0021895838 0.04263116 -0.023171742 -0.053925227 0.02961933
-0.31713125 0.050142843 0.042295177 0.0071961074 0.10012027 -0.013109276 -0.034776393 0.016489869
-0.18841653 0.028662419 0.016239744 0.028526183 0.019977536 0.032689255 0.020873267 -0.13446291
0.009760721 0.030841319 0.003538857 -0.0030493946 -1.9082981 0.043498185 -0.06458338 0.05772077
-0.032307945 0.04792517 -0.5022272 -0.05131013 0.054820143 0.08427058 -0.17686123 -0.22903296
-0.03874045 -0.031117378 0.02437779 0.11883019 0.031678718 -0.037902176 0.039798904 -0.48120645
0.047446772 0.014915143 0.0264341 0.016169732 0.0027221672 0.14063677 -0.013094932 0.06301779
-0.024611833 -0.036448628 -0.029011512 0.010291957 -0.59474933 0.2198718 0.3033266 0.036203243
-0.05255598 0.04262181 -0.04632278 -0.0013279537 -0.018644858 0.03895687 -0.04764437 0.055029165
0.016951764 -0.03960423 -0.03391702 -0.10524306 -0.47828442 -0.028247116 -0.04196188 0.09803925
0.06840181 0.3028305 0.015821088 -0.049918737 -0.0038946546 -0.1824632 0.03078356 0.027698703
0.0033878684 -0.02667339 -0.016095262 -0.0029855762 0.04680568 0.06535916 -0.03502266 -0.04173459
-0.029469604 -0.2953611 0.19064428 -0.010693774 0.0027378264 -0.051171474 0.016612096 -0.038845964
0.07967359 0.14947379 0.05591521 -0.1046553 -0.01606894 0.1706548 0.13393648 0.0034512249
-0.061982755 -0.0039173244 0.036473747 -0.009191284 -0.043377977 0.050308652 -0.04336941 0.006568795
-0.14358377 0.059149522 0.019629188 0.017831497 -0.26052547 -0.03188697 -0.061721094 -0.009961888
-0.024031071 0.035766367 -0.0442257 -0.15767431 -0.109028116 -0.0389544 0.040877156 0.10844725
-0.018867996 -0.03076541 0.057766292 -0.017092766 0.018330155 -0.05546571 -0.15497391 0.016910441
0.06887272 0.039646253 0.01715244 0.046676137 -0.04680099 0.016216023 -0.039998043 -0.0034001744
-0.036802605 0.013038494 3.303951e-05 -0.9251013 0.03683035 -0.21170492 0.044259902 0.28874674
-0.08309392 -0.18410248 -0.09997339 0.1383837 0.056764033 0.07422485 -0.038118854 -0.0025690857

bias f4 [256]
00000000: 1a74 01bc 8c4c 8cbd 19e1 05bd 4794 773c
00000010: 4ec0 8abd 43c3 d53c f49c 8e3d cd84 b6bd
00000020: e2c4 2e3d f447 18bd b9d6 d7bc 5803 66bc
00000030: b973 053d b683 0b3d d650 c43c 82f7 44bd
00000040: 3420 c7bd 47b1 3bbd 0c37 77bd 1fa9 c2bc
00000050: a5d4 02bc 962c 8fbc 9595 8dbd e151 6e3d
00000060: 3e0c 2dbd 4256 46bc 3a6f 9fbc 299d 7f3e
00000070: e4b6 3dbd 036b c4bd d64b 60bd 60dc 843e
00000080: 6e77 83bd 03a8 d5bd ecfd 193d 54fd 81bd
00000090: 8828 9ebc f585 ea3c d58d e9bd 2093 3b3d
000000a0: aefc 3dbd 049e 71bd dde4 1abe 4e89 eabc
000000b0: 4b3b 1ebd 1689 a13c 453e 073a 39c8 20bd
000000c0: 4cd5 22bd 8f01 a3bd 4319 833c 6881 c5bc
000000d0: 30e3 eb3d cc87 8abc aa23 c73c d543 a9bd
000000e0: a645 89bd 3eb1 82bd ab4e 673e 1e5c 86bd
000000f0: ae29 32bd 62e3 233b e071 75bb 29cc 52bd
00000100: a6ec 83bd b474 87bd b89b 83bd 0a6e d7bd
00000110: 0aee 223c b506 1b3c 4b76 a3bd 6fe2 303d
00000120: a16f b73b 00e9 893c 986a f9bc 3989 a9bc
00000130: 96d2 1f3d 500e f63c dc4e 4e3d fd6e 9e3d
00000140: 9a9a a4bd f860 69bd effd 4dbc f258 f7bc
00000150: 2bc6 5e3c 0516 f43c 20bd 8dbc 38a4 bbbd
00000160: 85d4 993d ca61 073d 5a2d 083d f14a 91bc
00000170: 5dbe 82bd fb9d b4bd 781e 8dbe 8fff e53d
00000180: 5644 283d 4617 993d 84cc 86bd 08bc a1bd
00000190: 18f2 9c3c dfc4 6bbd e795 b7bb b3eb 5ebd
000001a0: 8c4d 2fbd 249a 0fbe 6488 8abc 0cbe 143d
000001b0: 9808 1c3c d559 0d3d b689 6dbd e9f3 ed3c
000001c0: c1cc 053d 2297 0a3d 481d 6abd 6eb1 a53d
000001d0: 553e 033d acf1 c8bc 6273 2bbd 4cd9 cfbc
000001e0: 07b8 0a3d a37c 123d 6fb8 9f3c 250b 41bd
000001f0: 5c63 863b c03e b03c d78c 32be 4f80 16bd
00000200: e3a7 37bd 0a9d 0ebd d910 09be c004 e6bb
00000210: 5e8d 93bd 2f90 853c 495d 27bd 6e9b a1bc
00000220: b93a 1b3d 9cdc 5bbd d533 2cbd 60f7 34bc
00000230: 4ae9 b73d fca4 86bd 9185 9ebd 64f0 c6bd
00000240: 8ccc e23c e7d1 b03c 42e7 c83d bb49 fcbd
00000250: d33e 833b 2435 3c3d c58b 09bd 6665 b23c
00000260: 9f3b 10bd b09c 3c3e ca17 d43d 1449 26bc
00000270: cc22 26bd 10d3 babb 8b80 eebc 1298 adbc
00000280: 2dc7 ba3c 0a60 1dbc 659c 5dbd 38a9 3bbd
00000290: 4114 063e d358 41bd 0cf9 43bd 63e4 963d
000002a0: aff5 55bd 031d 23bd 9fc3 50bd 8891 1c3e
000002b0: 5666 89bd 59a6 dcbd 6d28 95bd c4d1 d8bc
000002c0: 287b 0f3e 2c4d 013d f855 f1bd 7a09 58bd
000002d0: 382e d1bb 7b84 dabc 4472 70bd 9464 5abd
000002e0: 6d5a 77bc d7ee b8bd a4e3 7abd 95ef 9fbd
000002f0: 809b 0abe 0253 45bd b532 95bd dbfb bcbd
00000300: 020d e4bc 89e3 3dbd e10a 203d 6b62 03be
00000310: 053e 5fbc 4914 e23c 5242 3fbd 423a 433b
00000320: 621d f13c 20a3 b63d 26d7 5abd 399b bebc
00000330: 1464 20bc 1738 9abd f038 3c3d bceb 06be
00000340: da17 5b3d b463 b9bd 0d5b aebc c097 c43c
00000350: 2938 c4bb b1a5 6dbc ad99 863d 503f 27bc
00000360: c4e6 083b bc67 95bd fea3 fbbd 8949 c9bd
00000370: 4a04 d33c 7df5 8cbd 57d4 64bd f094 343c
00000380: 1e2a 013d f6da f3bd 1323 923c bed4 283d
00000390: a1a0 25bd 2f66 f13b cf20 80bd b1b7 523c
000003a0: 518b 18bd 697c 353d 6971 26bc f50c 25bd
000003b0: 317e 113e 8d37 a63c abb4 4ebd 7afe 08bd
000003c0: c840 3b3d 5373 5abd 948b dabc dac4 3abd
000003d0: ee7a 4ebd 70c0 32be 4b40 5e3e 952a a23c
000003e0: 1c0d 82bd 04c3 87bd 0184 f9bc 6ce8 903d
000003f0: c891 bbbd ccc3 52bd 3ef3 553c 5641 b3bd
-0.007901216 -0.06850538 -0.032685373 0.015111036 -0.067749605 0.026094085 0.0696353 -0.089120485
0.04266823 -0.037177995 -0.026347505 -0.014038883 0.032581065 0.034061156 0.023964327 -0.048087604
-0.09722939 -0.04582336 -0.06035523 -0.023762284 -0.007985269 -0.017477315 -0.06913296 0.058183555
-0.042248003 -0.012105526 -0.019462217 0.24962296 -0.046316996 -0.09590723 -0.054759823 0.25949383
-0.06419264 -0.10432436 0.037595674 -0.06347147 -0.019306436 0.028628329 -0.114040054 0.045794606
-0.046383552 -0.058988586 -0.15126367 -0.028629925 -0.038630765 0.019718688 0.000515912 -0.039253447
-0.039754197 -0.07959282 0.016003257 -0.024109557 0.11517942 -0.016910456 0.024308998 -0.08264891
-0.067027375 -0.063814625 0.22588603 -0.06560539 -0.04349678 0.0025007357 -0.0037451908 -0.051464234
-0.064416215 -0.06614056 -0.06426185 -0.10519035 0.009944448 0.009462048 -0.07981547 0.043184694
0.005598024 0.016834736 -0.030446336 -0.020695316 0.03901919 0.030036122 0.050368175 0.07736013
-0.080373004 -0.056977242 -0.0125727495 -0.03019378 0.013597052 0.029795656 -0.017302096 -0.091621816
0.07511238 0.033052243 0.033246376 -0.01773593 -0.06383965 -0.08819195 -0.27562308 0.112303846
0.041080795 0.07475142 -0.06581977 -0.07897192 0.019158408 -0.057560798 -0.0056025865 -0.054424
-0.042798564 -0.14023644 -0.01691074 0.036314055 0.009523533 0.0345095 -0.05799266 0.02904697
0.03266597 0.033835538 -0.05715683 0.08090483 0.032041866 -0.0245293 -0.041858084 -0.02537217
0.03386691 0.035763394 0.019497124 -0.04712977 0.0041012 0.021514297 -0.17436539 -0.03674346
-0.044837844 -0.034817733 -0.13385333 -0.007019609 -0.07204698 0.016304104 -0.040860448 -0.019727435
0.0378978 -0.053677186 -0.04204162 -0.011045307 0.08980043 -0.06574437 -0.077403195 -0.097138196
0.027685426 0.021584464 0.09809734 -0.123187505 0.004005292 0.045949116 -0.03358056 0.021776866
-0.03521311 0.18419147 0.103561 -0.010149259 -0.04056053 -0.00570143 -0.029114028 -0.021190677
0.022800053 -0.009605417 -0.054104228 -0.045815676 0.13093664 -0.04720385 -0.04784493 0.0736778
-0.052236255 -0.03982259 -0.05096781 0.15289891 -0.06708972 -0.10773916 -0.07283101 -0.026467212
0.14011824 0.031567737 -0.11783975 -0.052743413 -0.0063836835 -0.0266745 -0.058702722 -0.053318575
-0.015097243 -0.0902993 -0.06125225 -0.078093685 -0.13535881 -0.048174866 -0.07285062 -0.09227725
-0.027838234 -0.046359573 0.039072875 -0.12830512 -0.013625626 0.027597563 -0.046694107 0.0029789363
0.029432956 0.089178324 -0.053427838 -0.023267375 -0.0097894855 -0.075302295 0.045952737 -0.13175863
0.053489543 -0.0905222 -0.02128365 0.023998141 -0.00598814 -0.014504836 0.0657228 -0.010207966
0.00208895 -0.072951764 -0.122871384 -0.09828479 0.025758881 -0.06882761 -0.055866566 0.011021838
0.031534307 -0.11906998 0.01783899 0.04121851 -0.04043639 0.0073669176 -0.06256258 0.012861178
-0.037242237 0.0443081 -0.010158875 -0.04029556 0.14208294 0.02029016 -0.050465267 -0.033445813
0.045716077 -0.053332638 -0.026677884 -0.04559789 -0.050410204 -0.17456222 0.21704213 0.019795695
-0.06350157 -0.06628993 -0.030458452 0.07075581 -0.09158665 -0.051456258 0.013058482 -0.08752696

weight f4 [1, 256]
00000000: eb25 c43e 36b0 b3b9 8b2e 3c3d 0495 aabc
00000010: b5c7 fb3f 326b 083d 9cd1 a4bf 2d3e c33d
00000020: c78e 4dbd 7306 973d 81c8 d63d 94f8 c93e
00000030: 645e 93bf c38d c13e 354b 03bc 18b8 2cbd
00000040: 46e3 e93d 61ff 9aba 85bc 0dbc 31af d9bb
00000050: c26b 1dbf f519 023b 2252 c73d 6677 9cbf
00000060: 656a 23bd ff15 00bc 9688 af3f 2088 b9bf
00000070: 9d50 d03d 2a65 cb3e f85f 16bd dc67 17c0
00000080: 4fe5 ce3e f05c cc3d bec4 24bd 1e0d 3fbd
00000090: 06f3 61bd c2cb 103d 8d90 cb3e 15d2 e0bf
000000a0: 483a 983b a528 ca3e 2702 d73e 481e ed3a
000000b0: 1e77 0abc 6753 11bc 837a f83c 0d2e 9d3d
000000c0: b200 643d 1d67 f43d 2f2e b53b fcc2 57bd
000000d0: a1ad 85bf ec96 55bd 5d0e 8dbc e3bd 813f
000000e0: ed72 013d 1cfa bcbc 469d cbbf c35d 183d
000000f0: 4327 b83d c5bb d5bb 88b0 dbbc d8be f4bc
00000100: 6806 a1bc 01e2 b63e 91a3 ca3e 4b88 bc3d
00000110: 3d7b 10bb b668 9a3c f4e1 d23f 4b8b 473c
00000120: c731 2ebd ac08 07bd 0e0e be3e 6e35 b03e
00000130: 444b 27bd 2a23 523a ad47 2740 c76a f0bf
00000140: 6b2a b93d fc2f c93e 80d5 9b3f 9c0f 183f
00000150: b770 a93b db8e c5bc 2dc3 17bd c142 dc3d
00000160: 3291 ccbf bd4c 02c0 91c4 073d 6f1c e03d
00000170: ade0 a33d c6a7 de3e a786 41c0 a85b 0dc0
00000180: 4950 33bd 8643 b8bf f778 c23e 45b3 c73e
00000190: 7791 af3e 1e73 c33d 1186 103d b61c fb3c
000001a0: 9405 f9bc cf80 e63d febf cd3e ce91 07bd
000001b0: 2cbd 80bb d2ae 3dbc b73b a93c ed06 b0bc
000001c0: 12c6 453d 2252 81bb 0c48 8e3d 9c84 16be
000001d0: b2a6 c1bc d6bc 4e3d 96bc a03d df98 14bd
000001e0: 18ad ccbf 68ba 0ebd 3663 c5ba 4ea4 4bbd
000001f0: eef0 913c 20b4 12bb 649d 5b3f 6542 cf3e
00000200: 90d9 263d b147 17ba 2d11 c83e 901a a93b
00000210: e0b5 7fbb 804d 62bc 4214 b43e 3845 c73e
00000220: 2b43 1fbd 0433 8d3d 2625 8a3d f2f0 3fbd
00000230: 0783 99be e756 28bc 2dbd e33e c5d1 b73d
00000240: 4e34 abb8 bee0 25bc 22c9 fbbf b441 a43f
00000250: b992 6abb 2fca 0ebc 8f19 31bd 950d a83c
00000260: 36d7 c43d 990d 8abf e322 78bf 4476 c1bc
00000270: 29ec 7aba 182e 1dbd 1701 933d 890c 42bc
00000280: d6f1 dbbc b633 c03e 0859 713c e628 613d
00000290: 2797 1ec0 4874 c03d 84e8 cb3d 9d1b f1bf
000002a0: 8daa afbb ff2c 383b 9869 c9bc 302f d4bf
000002b0: d398 813f 86d4 ca3d cd47 b53e 977e c33e
000002c0: 13a3 cfbf 88cf 343c 5735 cb3d 09e6 54c0
000002d0: ab15 d93c a708 d73c ade5 91bc fbd7 073d
000002e0: 979f 6e3d e362 b53e ad9c 293f 42df ee3f
000002f0: ec0c e13d 1438 d23e 7277 323d 93ce 7b3d
00000300: 26a6 e6bc 1048 ab3e eb22 e8bc 5a2a cc3d
00000310: 3655 253b 22d1 77c0 0c6f 443d 36e9 a2bc
00000320: 064e 6dbc 815c aabf 31bc 4dbd 8fb7 463c
00000330: 7ccb 2bbd 6927 b13e f4a1 9bbc b187 c83d
00000340: 08f4 fdbb c2a8 d43d c2ea 4ebc 71a3 c0bb
00000350: 3c57 6dbd b8a5 3e3d 6864 08c0 a00a 313b
00000360: ce99 1ebd ea3a d13e 9307 c43e 425e af3e
00000370: 681b 96bf f3eb b73e 220e 343a d80c 613b
00000380: 3b29 69bc 6840 b03d f5ac 07bd 4168 3ebc
00000390: f863 81bb 43f4 c8bf 5138 e33e 8e18 183d
000003a0: 378f d23d 726a a63c 36b0 aebb df3e 03bc
000003b0: cb66 a1bf 6931 9fbc d161 953d 3b8e bb3e
000003c0: 8043 18ba f761 ce3d db51 ba3d f0ef f93b
000003d0: 634b dc3e 682d 6a3f 66c6 a2bf a894 b23b
000003e0: 868d e53d 5c8d 3abd 6942 acb9 9bad 1abf
000003f0: 2928 c83d 525a 363b 83b8 c9bf a399 cf3e
0.3831018 -0.00034272828 0.045942824 -0.02082301 1.9670321 0.033305354 -1.2876468 0.095333435
-0.05018499 0.07374277 0.10487462 0.39447463 -1.1513181 0.37803468 -0.008013536 -0.042167753
0.11420302 -0.0011825376 -0.008650904 -0.006643199 -0.6149255 0.0019851897 0.097324625 -1.2223938
-0.039896388 -0.007817744 1.3713558 -1.4494667 0.10171626 0.3972562 -0.036712617 -2.365714
0.40409324 0.09978664 -0.04022669 -0.04664337 -0.055163406 0.03535057 0.3975872 -1.7564112
0.0046456195 0.39484134 0.4199383 0.001809069 -0.008451251 -0.008869982 0.030331856 0.07674799
0.055664726 0.1193373 0.005529187 -0.052676186 -1.0443612 -0.052145883 -0.017218763 1.0136074
0.031603742 -0.02306848 -1.5907371 0.037198793 0.089918636 -0.006522628 -0.026817575 -0.029876158
-0.019656375 0.35719302 0.39577916 0.09205683 -0.0022046112 0.018848758 1.6475205 0.012179206
-0.04252794 -0.032967255 0.37120098 0.34415764 -0.040843263 0.0008016104 2.6137497 -1.8782586
0.09041294 0.39294422 1.217453 0.5939882 0.0051709074 -0.02411597 -0.03705137 0.1075492
-1.598181 -2.0359337 0.033146445 0.10942923 0.08001838 0.43487376 -3.0238435 -2.2087193
-0.043777738 -1.4395607 0.37982914 0.3900396 0.34290668 0.09543441 0.035284106 0.030653339
-0.030398168 0.11255037 0.4018554 -0.033098035 -0.003928801 -0.011577325 0.020658357 -0.021487677
0.048284598 -0.0039465586 0.069473356 -0.14699024 -0.023639057 0.050473057 0.0784847 -0.0362786
-1.5990324 -0.03484574 -0.0015059474 -0.04971724 0.01781508 -0.0022385195 0.85787034 0.40480343
0.040734828 -0.0005770876 0.39075604 0.005160637 -0.0039018318 -0.013812423 0.35171705 0.38919997
-0.038882416 0.06894496 0.06745367 -0.046860643 -0.29982778 -0.010274625 0.44480267 0.08975557
-8.163658e-05 -0.0101243835 -1.9670756 1.2832551 -0.003579302 -0.0087151965 -0.043237265 0.020514289
0.09611361 -1.07854 -0.9692823 -0.023615964 -0.0009571934 -0.038374037 0.07177942 -0.011843809
-0.026848715 0.37539452 0.014730699 0.054970644 -2.4779756 0.09397179 0.09956458 -1.8836552
-0.0053609074 0.0028102992 -0.024586484 -1.65769 1.0124763 0.09903817 0.35406342 0.38182518
-1.6221641 0.011035807 0.09922283 -3.3265402 0.02649959 0.026249243 -0.017809713 0.03316496
0.058257665 0.35427007 0.66254693 1.8661883 0.10988793 0.4105841 0.043570943 0.0614763
-0.028155398 0.33453417 -0.028336963 0.099690154 0.0025227792 -3.8721395 0.047957465 -0.019886594
-0.014483934 -1.330948 -0.0502283 0.012128725 -0.041942105 0.3460038 -0.018998124 0.09791506
-0.007750038 0.103837505 -0.012629213 -0.0058788587 -0.05794452 0.04654476 -2.1311283 0.002701439
-0.0387209 0.4086526 0.3828703 0.342516 -1.1727114 0.35922202 0.0006868561 0.003433993
-0.0142310215 0.086060345 -0.03312393 -0.011621536 -0.003948685 -1.5699543 0.44378904 0.037132792
0.10281222 0.020314429 -0.0053310646 -0.008010595 -1.2609495 -0.01943274 0.072940476 0.3663195
-0.0005808398 0.10077279 0.09097644 0.0076274797 0.43026266 0.91475534 -1.2716796 0.00544985
0.11208634 -0.045544967 -0.00032855876 -0.6042115 0.09773285 0.0027824831 -1.5759434 0.40546903
